examples/Evolutionary-Reinforcement-Learning/simple_no_pool/Models/1_actor.pt (torch, 201760 bytes, 8 tensors)

fc1.weight f4 [256, 28]
000000 0f 2a 09 3e c2 ef 4a 3e 23 35 2a be fb d3 01 be
       0.1339495 0.19818023 -0.16621833 -0.1267852
000010 ea 8a e6 3c 08 5d 3f bc a6 4d fa 3d 6b d8 7f bd
       0.028142411 -0.011679895 0.122218415 -0.06246225
000020 98 a3 0b be 0d ef aa bd d8 96 0d be e0 09 8d 3d
       -0.13636625 -0.083463766 -0.13827074 0.06886649
000030 bf 70 4f bd 94 91 1c 3e 3d 1c 37 be 9b 97 53 bd
       -0.050644632 0.15289909 -0.17881866 -0.051658254
000040 96 fe 49 be 73 a9 0c 3d fd 23 dc 3d e0 60 de bd
       -0.19726023 0.034341287 0.10749052 -0.10858321
000050 bb c4 41 bd f4 90 f4 3c 40 57 a6 bd a7 da 20 be
       -0.047306757 0.029854275 -0.0812211 -0.15708409
000060 b4 4c 8a bd 0a 41 e2 bd c1 c2 ab bd 8a 9d 02 3e
       -0.06752911 -0.110475615 -0.08386756 0.12755409
000070 f3 19 e6 bd 56 89 84 3d 80 b4 0c be 59 10 40 3e
       -0.11235418 0.06471507 -0.1374073 0.18756236
000080 82 c9 70 bd 17 d1 db bd c4 29 d3 3d 54 ee 3d 3e
       -0.058785923 -0.1073324 0.103107005 0.18547946
000090 55 33 df bd 78 77 40 be 64 04 0b 3c d8 5e a0 3d
       -0.10898463 -0.18795574 0.0084849335 0.0783059
0000a0 3b 89 c8 3d 9c 5b 23 be 00 dc 51 bd f5 15 50 bd
       0.097918 -0.15952915 -0.0512352 -0.05080219
0000b0 d2 ca cf 3d 26 7a 38 bd 2b a3 b4 bd bf 25 09 be
       0.10146107 -0.045038365 -0.08820184 -0.13393305
0000c0 9e a7 e0 3c 73 f4 48 3c 5e 6f 31 be a3 0d 1a be
       0.027423676 0.0122653125 -0.1732764 -0.15044264
0000d0 7b 40 58 bb 45 f5 17 be a6 98 33 3d 5a ea 42 bc
       -0.0032997418 -0.14839657 0.04384675 -0.011896694
0000e0 b0 55 46 3e 6f 7f e0 bd d4 f7 3a bd 38 33 9d 3d
       0.19368625 -0.10961806 -0.045646504 0.07675785
0000f0 67 78 ae bc ad 70 1c 3e 07 53 06 3e d7 6a 15 3e
       -0.021297647 0.15277357 0.1311761 0.14591537
000100 3a 5d 7c bd 6d 26 38 3e 59 13 43 be f8 5b ba 3c
       -0.061612345 0.17983408 -0.1905035 0.022748932
000110 05 5a 23 3b 4a a4 77 bd bf 10 09 3d 69 2d 9a bd
       0.0024925482 -0.060459413 0.033463236 -0.075281925
000120 ff 3c b6 3d 40 aa dd 3b 78 d5 b0 bc 85 19 73 3d
       0.08898353 0.00676468 -0.021586165 0.05935051
000130 41 64 33 be 22 5b c8 3d 34 e7 c6 3d af 63 55 bd
       -0.17518713 0.09783007 0.09712067 -0.05209702
000140 33 22 02 3e 6b f0 00 3e 8c 30 e7 bc 4c 38 04 be
       0.12708358 0.12591712 -0.028221391 -0.129121
000150 04 0d 7c 3c d2 50 4d 3d 0f 8d fc bc 1e a3 dd 3b
       0.015383963 0.050125904 -0.03082898 0.00676383
000160 4a 1e 05 3d ff 55 29 be 24 0d a1 3d da 55 f9 bc
       0.03249959 -0.16536711 0.078638345 -0.030436445
000170 65 41 31 be e5 52 b4 bd 90 f8 bd bc 2d c2 1f 3e
       -0.17310102 -0.088048734 -0.023189813 0.15601416
000180 6f 53 cc 3d c5 04 1d 3e 77 56 38 be f0 23 ff bc
       0.09976851 0.1533385 -0.18001734 -0.031145066
000190 21 9f 12 be dc 61 cb bd 06 b4 07 be bd ac 9c 3d
       -0.14318515 -0.099307746 -0.13252267 0.07650135
0001a0 10 52 3d 3e 26 a8 b6 3c c3 bc 12 3e 6f b8 c8 3d
       0.18488336 0.022296976 0.1432982 0.09800803
0001b0 5b 5e 8d bd 0c 36 18 be b3 e1 51 3d ab de c9 bd
       -0.069027625 -0.14864367 0.051240634 -0.09856924
0001c0 df a8 02 bd c0 bb 95 3d 27 d0 19 3d 7e cc 78 3d
       -0.03189933 0.07311201 0.037552025 0.060741894
0001d0 02 2e 9c 3d 43 7e 73 3d 94 6c ef 3d 24 da e8 bd
       0.07625963 0.059446584 0.116906315 -0.11369732
0001e0 9a a2 14 3e 04 82 2f 3e 2e 21 97 bd 89 36 a4 3c
       0.14515153 0.17139441 -0.073793754 0.020045536
0001f0 86 b6 df 3d da 15 a3 bd 03 db 8b bd 80 40 e6 bd
       0.109234855 -0.07963152 -0.068288825 -0.11242771
000200 28 11 71 bd 77 1f 8c 3d e5 80 3f be 31 37 0f be
       -0.058854252 0.06841939 -0.18701513 -0.13985898
000210 b4 6e e1 3d a6 e4 a2 3d 9e 97 3a be ce fa 09 3e
       0.11007443 0.079537675 -0.182219 0.1347458
000220 fa 70 25 bd 00 eb d9 bd 8f 09 a1 bc b5 f5 34 be
       -0.040390946 -0.10640526 -0.019657878 -0.17671855
000230 54 85 d5 bc ee 7c 86 bd 6b bc 5c 3d b9 2c 0b 3e
       -0.026064552 -0.06566797 0.053890627 0.13591279
000240 60 19 8c 3d b4 62 d4 3c e8 52 2e bd 51 59 1b bc
       0.068407774 0.025925972 -0.042559534 -0.009481744
000250 f7 82 15 be 68 23 ef 3d e9 1a 93 bd 15 4d 2a 3e
       -0.1460074 0.11676675 -0.07182867 0.16630967
000260 44 07 7e bd 85 9c d7 3d ee 30 fd 3d b6 79 ca 3d
       -0.062018648 0.105279006 0.12362848 0.09886496
000270 f5 52 01 be fc d1 30 3d 55 74 2a 3b 38 0b 0e 3e
       -0.12629302 0.043169007 0.002600928 0.13871467
000280 31 d2 10 3d ba 7d 2a be e6 dd 57 3c 7d 30 10 be
       0.035356704 -0.16649523 0.013175463 -0.14080997
000290 34 08 b3 bd df 12 cc bd 2e dd 80 bd 10 6c 7b 3d
       -0.08741799 -0.09964537 -0.06292187 0.061382353
0002a0 3f 21 47 3e 82 ea 1c 3e db f1 02 be ca 28 15 be
       0.19446276 0.15323833 -0.12787573 -0.14566341
0002b0 a2 fa 59 bd c3 6e 2b be 6c ef b0 3d 71 86 12 bd
       -0.053217538 -0.16741471 0.08639416 -0.035772745
0002c0 bb bd 97 3d 61 cd a4 3d a2 1f 96 bd 97 4d 29 3e
       0.07409235 0.080469854 -0.07330252 0.16533504
0002d0 ca 2a dc 3d 78 71 95 3d e6 30 0e be 8a e6 a4 3d
       0.10750349 0.07297033 -0.13885841 0.08051784
0002e0 84 2d a1 bd 87 05 36 3c d4 1d 81 bd 0c e7 14 bd
       -0.078700095 0.011109716 -0.063045174 -0.036353156
0002f0 dd e1 e9 bd 7a b3 ca 3d 3c d7 ba 39 73 81 ce 3d
       -0.11420033 0.09897514 0.00035637047 0.10083284
000300 83 97 00 be 7b a9 cc bd d4 5f da 3c 70 19 0a be
       -0.12557797 -0.09993263 0.026657023 -0.13486266
000310 50 8d fe 3d 62 71 d3 3d dc 0b 15 3e 4a cb 32 be
       0.12429297 0.103243604 0.14555305 -0.17460361
000320 ad fb bf bd 98 39 00 be 76 77 07 be e8 5a 37 bd
       -0.09374175 -0.1252197 -0.13229164 -0.04476443
000330 4f b6 df bd ec 92 51 3d 52 47 92 bb f7 83 fb bd
       -0.109234445 0.051165506 -0.0044640685 -0.1228103
000340 62 db f1 bd 8d d7 5e bc 58 2b c3 3d 0f 04 01 bd
       -0.11809422 -0.013601196 0.095297515 -0.03149801
000350 4d e9 3c 3e 93 3a 08 3e 2c d0 33 be 33 44 8b bd
       0.18448372 0.13303594 -0.1755988 -0.06800117
000360 0c ea 13 3e ac 92 10 3c 11 61 05 bd c2 58 35 3e
       0.1444475 0.008824032 -0.032563273 0.1770964
000370 ab a0 b7 3d 23 d9 e9 bd 6d 1e c2 bd 8c ea 18 3e
       0.08966192 -0.11418369 -0.094784595 0.14933223
000380 0a d1 97 bd f5 58 12 be 0d c9 d0 3d 80 1b 0e 3e
       -0.07412918 -0.14291747 0.101945974 0.13877678
000390 4d 97 20 be 51 45 55 3b 08 ee 8d 3c c2 3a 15 3e
       -0.15682717 0.0032542537 0.017325416 0.14573196
0003a0 d7 fe b7 3d 15 63 17 be e3 c2 de 3d 0f 49 31 3e
       0.08984154 -0.1478389 0.108770154 0.17313026
0003b0 26 d2 c0 bb 66 42 0e bc f1 e3 9e 3c 63 e7 0d be
       -0.0058844266 -0.008682823 0.0193958 -0.13857798
0003c0 6d ae cc 3c 22 d2 d9 ba 56 1b b8 bd 1e a1 0f be
       0.024985516 -0.0016618411 -0.08989589 -0.14026305
0003d0 e4 85 8a bc 3b 73 5c 3d 4d f9 36 bd 92 fb 14 3d
       -0.016909547 0.05382083 -0.044671346 0.03637273
0003e0 21 06 00 3e f8 4d 08 bd 73 f2 40 bd 38 20 1b be
       0.12502338 -0.03327748 -0.047106218 -0.15149009
0003f0 77 1d cd 3c 3e 29 ad bd 32 3c 50 3e 47 12 16 3e
       0.025038464 -0.08455132 0.20335463 0.1465541

fc1.bias f4 [256]
000000 29 02 0a be dc 38 04 3e 66 e2 28 be 78 be 18 be
       -0.13477387 0.12912315 -0.16492614 -0.14916408
000010 1d 20 99 3d af a2 13 3e 72 ea 16 be 94 57 8e bd
       0.07476828 0.14417528 -0.14737871 -0.06950298
000020 ef 68 4e bd 9d d0 27 3e 3c c1 1c bd a1 90 9e bd
       -0.05039304 0.16388173 -0.03827022 -0.077424295
000030 e3 88 a1 3d 44 e5 a4 3c f7 98 58 bc fa 5a 15 be
       0.07887437 0.020128854 -0.013220063 -0.14585486
000040 bf e0 40 3e eb 9d ae bd 50 5f e3 bd 2c fa af bd
       0.18835734 -0.08526214 -0.11102164 -0.085926384
000050 23 80 88 3c a3 35 02 3d ea 13 1f be 8e f9 2e 3e
       0.016662663 0.031789433 -0.1553494 0.17087385
000060 c1 38 52 3e e2 df e7 bd 1e 5d 82 bd fc 0e 14 be
       0.20529462 -0.11321999 -0.06365417 -0.14458841
000070 78 c2 37 3d c1 31 d5 3d 32 d4 e2 bd 5d 59 f5 bd
       0.044863194 0.104098804 -0.11075629 -0.11979935
000080 2c 9b 40 3a 56 c9 88 bd 92 97 32 bd 96 eb 72 bd
       0.0007347341 -0.06679027 -0.04360158 -0.059306704
000090 87 46 99 bc 22 dc 3c 3e 97 7c c2 bd 1a 3f 34 3e
       -0.018710388 0.18443349 -0.0949642 0.17602196
0000a0 71 0d 33 3e a5 63 ae 3d 67 23 2e be 58 e1 0e be
       0.17485596 0.085150994 -0.17005692 -0.1395315
0000b0 e0 29 02 be dc 3b 24 be c0 91 cd bd 25 34 e2 bd
       -0.12711287 -0.1603846 -0.10037565 -0.11045102
0000c0 31 b1 db 3c 05 c2 02 be 2e 2b 34 3e c3 35 c4 3c
       0.02681789 -0.12769325 0.17594597 0.023951417
0000d0 ee bb f0 3d 08 95 22 be 99 a1 bb bc 50 d2 fb 3c
       0.11754595 -0.15877163 -0.022904204 0.030739933
0000e0 39 35 2e 3e ac 2a b2 bd 7e 35 b8 bd a9 97 f2 3d
       0.1701249 -0.08699545 -0.08994578 0.11845333
0000f0 0c 5c 3e 3e 34 e7 8b 39 9f 2d 3b be e2 8a 0f bd
       0.185898 0.00026684406 -0.18279122 -0.03504456
000100 36 10 76 bd ba 58 ad 3d 8c ae d5 3d ca f0 e7 3c
       -0.060074054 0.08464189 0.10433683 0.02831306
000110 b0 5c 47 bc 9e 58 5b 3d 09 cb c2 bd e2 7a 35 3e
       -0.0121680945 0.05355131 -0.09511382 0.17722657
000120 0d e5 0d bd 61 65 c2 bd 7b 9b e6 bd f0 b6 ce 3d
       -0.034642268 -0.09491993 -0.11260124 0.10093486
000130 bd a8 1b 3e 45 df 81 bc bc 3f fe bd 9e 86 cf bd
       0.15201087 -0.015853534 -0.124145 -0.10133098
000140 fa 98 74 bc ca fc 26 be cb 5a 1c be b5 c1 4f 3e
       -0.014929051 -0.16307369 -0.1526901 0.20288737
000150 2e 62 d9 3d 21 f8 73 bd 7c c4 67 bd 11 4e ab bd
       0.106144294 -0.059562806 -0.056583866 -0.08364499
000160 af a3 6d bc fa f3 f8 bd ee f4 44 bc f7 06 0e bd
       -0.014504357 -0.1215591 -0.012021286 -0.03467461
000170 cf 53 fe 3d ad 91 c9 bd 32 96 72 bd 5a 5a 0f bb
       0.12418329 -0.098422386 -0.05922527 -0.0021873922
000180 87 5c e5 3d 17 d3 63 3d 02 77 51 bd 32 a5 2c be
       0.11199289 0.055621233 -0.051138885 -0.16859892
000190 10 9a 06 be 5d 27 86 3d c6 e7 4b bd 3b 1c 14 3e
       -0.13144708 0.06550477 -0.049781583 0.14463894
0001a0 f6 30 55 bc 7c ae d1 3d cd 57 ae bd 30 d9 35 3e
       -0.0130121615 0.102383584 -0.085128404 0.17758632
0001b0 41 d0 ee 3d 1d 25 30 be 82 06 36 be fc 31 50 bd
       0.11660815 -0.17201658 -0.1777592 -0.05082892
0001c0 69 d6 ef 3d c8 78 0a 3e e8 f0 0a 3d be 26 04 be
       0.11710817 0.13522637 0.033921152 -0.12905404
0001d0 68 07 3e 3c 33 1e 3e 3e 02 f7 1d be 73 82 61 bc
       0.0115984455 0.18566208 -0.15426257 -0.013764012
0001e0 cc b1 f3 bd 64 92 dd 3d 47 01 8e bd d2 c5 c7 3d
       -0.118991464 0.108189374 -0.069338374 0.09754528
0001f0 5b 28 e7 bd 7d 17 6b bd a6 c3 f8 bd 59 dd 43 3e
       -0.11286994 -0.057395447 -0.12146692 0.19127406
000200 77 d4 2b 3d cc 88 96 3a 51 dd 10 3e ec cb 82 bd
       0.04195067 0.001148486 0.14146926 -0.06386551
000210 fd 07 f2 3d c2 31 cf 3b 68 e7 b1 3d f5 ef 2d be
       0.1181793 0.0063230703 0.08686715 -0.16986068
000220 0f 6b e6 bd 40 bb 4f 3d 99 af 5f 3b c4 fb 39 be
       -0.112508886 0.050715685 0.0034131764 -0.18162447
000230 21 1f bd 3d 69 18 63 bd 0e 64 bd 3d a7 eb 35 3d
       0.09234453 -0.0554432 0.092475995 0.04441419
000240 3b 0f 0a be f4 28 03 be f8 e3 1c 3e 91 f1 9f bd
       -0.13482372 -0.12808591 0.15321338 -0.07809747
000250 fc d2 02 3d 7d f4 06 bd 28 65 17 be 90 6e 2b be
       0.03193949 -0.032948006 -0.14784682 -0.16741395
000260 13 28 b9 3d ff b0 81 bd a3 86 a6 3d 6d 0e 25 bd
       0.09040847 -0.063325875 0.08131149 -0.04029696
000270 88 90 b2 bd a5 b6 da bb e4 30 33 be a9 00 03 be
       -0.087189734 -0.006674605 -0.17499119 -0.1279322
000280 c1 c5 a0 bd 6b fe e2 3d 7b 0b fe 3d 30 f5 59 bd
       -0.078502186 0.110836826 0.124045335 -0.053212345
000290 0c ea 3c 3d 91 c6 36 3e 49 4a c4 bd 98 21 ee bd
       0.046121642 0.17849185 -0.09584481 -0.11627501
0002a0 3a 38 60 bd fd 22 0f 3e 26 88 12 bd 2a 1d 06 3d
       -0.05474112 0.1397819 -0.035774373 0.032742657
0002b0 f9 92 b9 bd 7d 3c 1e 3e c4 dc 3b 3e 86 27 9a 3d
       -0.09061236 0.15452762 0.18345934 0.0752707
0002c0 f3 d5 35 bc 16 fa ef 3c db f1 93 3d cc 94 84 bd
       -0.011098373 0.029294055 0.07223865 -0.06473693
0002d0 2b 5e c6 3d dc bb 00 be 3b 96 8f 3d 6a 11 9b 3d
       0.0968593 -0.12571663 0.07011076 0.07571681
0002e0 06 b7 42 3d bc 36 d5 3d 5c 0b 8f bd cc 16 d5 ba
       0.047537826 0.104108304 -0.069845885 -0.0016257404
0002f0 ee 46 87 3d 6c 3c dc 3d 17 81 1c be 92 48 e7 bd
       0.06605326 0.10753712 -0.15283619 -0.112931386
000300 e0 6f a7 bd 84 af de bd ea 11 00 3e 86 2e 05 3e
       -0.08175635 -0.10873321 0.12506834 0.13006029
000310 69 38 fe bb 46 ab e9 bd c2 f0 d9 3d 20 62 b9 bc
       -0.0077581895 -0.11409621 0.10641624 -0.022629797
000320 96 fb 41 ba 58 5d c4 bd c2 3e f4 3d b3 d4 f7 3b
       -0.0007399855 -0.095881164 0.119260326 0.0075631975
000330 50 ba 5d 3d ef e4 2f 3e 5c 85 18 be b1 1d b4 3d
       0.05413276 0.17177175 -0.14894623 0.08794726
000340 67 2c 44 3d 30 66 05 be 34 67 7d bd 73 14 f5 bd
       0.047893908 -0.13027263 -0.061866 -0.11966791
000350 af 68 13 bd 33 7e 89 3d e9 e0 9e bd d4 39 39 3e
       -0.035988506 0.06713524 -0.07757742 0.18088466
000360 db 57 e6 3c 85 d3 01 3e 81 f2 85 3d 1b f1 ab 3c
       0.028118065 0.12678345 0.065403946 0.020988991
000370 6a 6c ed bd fd 88 2c bd b3 9d c9 3c 1d 3c c6 bd
       -0.11592944 -0.04212283 0.02461133 -0.096794344
000380 17 23 e5 bc b9 e6 03 3e 35 50 b5 3c f3 7f 3d 3e
       -0.027970834 0.12880982 0.022132972 0.1850584
000390 9c d5 59 bd 4e 6b 21 3e a6 33 87 3d 49 e3 59 3d
       -0.05318223 0.1576359 0.06601648 0.05319527
0003a0 bf 78 c6 3d 08 bf 0a be 69 9f 27 be aa 1d 52 bc
       0.09690999 -0.13549435 -0.16369404 -0.012824455
0003b0 9d 67 00 3e b8 fb 35 3e 11 06 cb 3d b8 e5 c5 bd
       0.12539525 0.17771804 0.099132665 -0.09662956
0003c0 1c 25 82 bd 0f 2d 36 3d 52 2d 40 3e c5 cb 30 bd
       -0.06354734 0.044476565 0.18767288 -0.04316308
0003d0 14 40 19 3e 0a 5e b3 3a 6d 79 07 3e 5e 61 5b bd
       0.1496585 0.0013684642 0.13229914 -0.053559653
0003e0 08 06 cc 3d 2a 7b 0f 3d c9 00 08 be b0 97 8f bc
       0.09962088 0.035029568 -0.1328155 -0.017528385
0003f0 17 45 3f 3d 38 06 b2 bd fb cf ab bd 24 e2 7f bd
       0.04669675 -0.086925924 -0.083892785 -0.062471524

fc2.weight f4 [128, 256]
000000 00 2c 17 bd 16 6e 3b 3d 17 21 01 3d de f9 3c ba
       -0.036907196 0.045759283 0.031525698 -0.0007208864
000010 a5 ae 78 3b 80 94 50 3b 38 73 65 3d 28 94 3c 3c
       0.0037945893 0.0031826794 0.056018084 0.011509933
000020 57 15 ec 3a b9 a1 50 3d e1 6a 13 bd 58 20 d1 bc
       0.0018011731 0.05093548 -0.0359906 -0.025528118
000030 a9 07 b6 3c 1b c0 82 3d e0 fa ac 3c 65 33 35 bd
       0.02222045 0.063842975 0.02111572 -0.044238467
000040 c6 a5 24 bd 68 ab 22 3d 9d 20 b9 3c fa 9c 91 3d
       -0.040197156 0.039714247 0.022598559 0.07110019
000050 9c 8a 1e 3d c1 f6 83 3d 80 eb 9c bc 52 46 48 3d
       0.038706407 0.06443549 -0.019155264 0.048895188
000060 80 c7 6f 3d 2b 60 8b 3c 3f 26 72 3c 8a 4d 40 bc
       0.058539867 0.01701363 0.014779626 -0.011737237
000070 3d df 0d bd bb 95 83 bd ab 09 ff bc 0b cf f6 bc
       -0.034636725 -0.06425043 -0.03113254 -0.030128023
000080 dc db 51 3d 71 d9 0b 3d 54 5f f9 bc 0f b6 cb 3c
       0.051235065 0.034142915 -0.030440964 0.024867086
000090 82 72 25 3d 05 4e 82 bb e3 6d 8b bb ef 82 88 3c
       0.040392406 -0.003976586 -0.004255043 0.016663997
0000a0 42 a9 39 bd 27 aa 2e 3d 22 1e 8b 3c 13 06 8d bd
       -0.045327432 0.04264274 0.016982142 -0.06885924
0000b0 4f 04 6f 3c 13 56 4f 3c cb 98 1e 3d 96 f5 35 bd
       0.01458843 0.012654799 0.038719933 -0.044423662
0000c0 f7 dc a6 3c 4f a2 85 3d ec d0 c1 3c 03 78 8d 3c
       0.020369036 0.065250985 0.023659192 0.01726914
0000d0 65 b9 b5 bc 06 4f 27 3d f7 21 3f bd e0 f7 56 3d
       -0.02218313 0.040846847 -0.04666325 0.052482486
0000e0 8a 45 2c bd 59 20 8d 3c 15 f1 e5 bc 83 5f f7 bc
       -0.042058505 0.017227339 -0.028069058 -0.03019691
0000f0 9e aa 1d 3b c5 e4 42 bd a4 da 80 bc 65 2a 4b 3d
       0.0024057995 -0.047581453 -0.015729256 0.049600977
000100 55 ff 7e 3d 15 86 c6 3c 0b dd 31 3d 1a 37 51 bd
       0.062255222 0.024233857 0.043423694 -0.05107794
000110 cd 44 31 3d 2b 8b 34 bd e6 58 a8 bc aa bf c5 bc
       0.043278504 -0.044078033 -0.020550203 -0.024139244
000120 37 dd a6 3c 98 a7 86 3d 59 76 83 bc 01 29 0b bb
       0.020369155 0.06574935 -0.016047643 -0.0021234157
000130 45 32 43 3c 59 9c 12 3d 38 61 c5 3b 68 43 88 3d
       0.011913841 0.035793636 0.0060235523 0.06653482
000140 06 e7 91 bb e4 50 9d 3c eb a5 9f bc bc 54 8f 3d
       -0.004452589 0.01920361 -0.019488296 0.06998584
000150 fb 4a c5 3a f3 f7 83 3b 5c f2 38 3c b2 ea 5e bc
       0.0015052253 0.0040273606 0.011288252 -0.01360576
000160 52 43 ac bc d4 79 db bb 73 94 6b 3d 39 b8 5e 3d
       -0.021028195 -0.0066978727 0.05751462 0.054374907
000170 03 16 b0 bc 41 a2 e2 3c 69 ec 16 3d 2a 16 14 3d
       -0.021494871 0.02766526 0.036846552 0.03615395
000180 28 fd 25 bc 20 1e da bc d5 a3 11 3c 3a 02 15 bd
       -0.010131158 -0.026625693 0.008889158 -0.036379077
000190 ac 0a f4 3c a1 3f ba bc 0b 5e 9f bb d6 b6 12 bd
       0.029790245 -0.022735419 -0.0048635057 -0.035818897
0001a0 f8 51 dc bc e2 fe 6f bc 02 23 7d 3d 97 2c 56 bd
       -0.026894554 -0.014648171 0.061800964 -0.052288618
0001b0 a3 7c c3 3c 4e d1 36 bd ae 5a dd bc 83 d8 23 bc
       0.023863142 -0.044633202 -0.027020779 -0.010000351
0001c0 43 e5 10 bd c3 23 1e bb 42 bc ba 3c e3 49 f6 bc
       -0.03537489 -0.0024130202 0.022794846 -0.030064529
0001d0 9d b5 29 3d b0 70 13 bc c2 23 45 bd 25 16 3b 3c
       0.041432966 -0.008999035 -0.048129804 0.011418854
0001e0 8e 6a 3b 3d 65 af 24 bd fe 0d 26 3d ae 07 1e 3d
       0.045755915 -0.04020633 0.040540688 0.038581543
0001f0 eb 5a 8b 3d 9b 35 52 bd a1 b1 54 bd 5d 17 c7 3c
       0.068044506 -0.051320653 -0.051927213 0.024303133
000200 15 29 2a 3b 85 9c 42 bd f7 cf 3e 3d c0 89 2b bc
       0.0025964428 -0.04751255 0.04658505 -0.010469854
000210 40 5f 43 3d e9 82 0d 3b 8a fc 7c 3d 49 e4 15 3d
       0.04769826 0.002159292 0.061764278 0.036594663
000220 74 69 ca 3c 58 7f 55 3c 54 2f 34 bc 1b 48 07 3d
       0.024708487 0.013030849 -0.010997612 0.03302775
000230 ed b0 6c 3c 78 f5 ae bb 0d ec af bb 2c 0d ff bc
       0.014446479 -0.0053393207 -0.0053687156 -0.03113421
000240 71 7e 74 b9 74 2b 07 bc c0 be 0d 3d f8 98 82 3d
       -0.00023316756 -0.008250106 0.03460574 0.06376833
000250 c7 16 4c bd 9a c0 c8 3a 20 15 93 3d f1 99 fa 3c
       -0.04982641 0.0015316189 0.07181764 0.030590983
000260 57 3d 9a bc be 42 84 3b 70 aa af bc ab 69 54 bc
       -0.018828077 0.0040362766 -0.021443576 -0.012964646
000270 13 21 7e 3d 91 0b 09 3c d9 13 35 3d 0e 2e 59 3d
       0.06204326 0.008364574 0.04420838 0.053022437
000280 93 88 47 bd 3e 98 06 bd 17 7e 7a 3d 15 10 17 bb
       -0.04871423 -0.032860033 0.061155405 -0.0023050357
000290 a1 95 4b 3c 79 85 86 3d e3 27 3f bc 87 ab 35 bc
       0.012425811 0.06568427 -0.011667225 -0.011088259
0002a0 64 65 45 bd 1f f1 5d bb 63 1e 85 3c ca 2e 07 38
       -0.048192397 -0.0033865643 0.016249841 3.2230084e-05
0002b0 88 67 12 3d 5d 83 52 ba ec 00 08 3d e1 43 46 bd
       0.035743266 -0.0008030439 0.033204004 -0.048404578
0002c0 fe b2 62 3d c6 5e 0e 3d 75 39 16 3d 11 c1 12 3d
       0.05534648 0.03475835 0.03667589 0.035828654
0002d0 c0 33 c8 bc 13 a6 18 bc 07 23 30 bd 3c 3c 2b 3d
       -0.024438739 -0.009316939 -0.043002155 0.04180549
0002e0 e0 f0 26 3c af ab 49 3d a3 94 90 3d 4c d7 32 bd
       0.010189265 0.049235996 0.070596 -0.043662354
0002f0 63 a5 f6 bc 56 9e 4f 3d bb b5 ae 3c 44 f5 cf bc
       -0.03010816 0.05068811 0.02132689 -0.025385506
000300 a6 b3 e1 bb 7a 84 03 bd b6 14 1d bd 0f d0 23 bd
       -0.006887871 -0.03210876 -0.03834983 -0.039993342
000310 4a 14 2b bb 09 e2 67 3d 03 1a fb bc 5e 1e b4 3c
       -0.0026104623 0.05661205 -0.030652052 0.021987136
000320 8f 30 47 bd d0 e5 5d bd 32 e7 fb 3c ad ef 70 3c
       -0.048630293 -0.054174244 0.030749891 0.014705581
000330 ff 9c 1e 39 b4 fe 1f 3d 85 84 ed 3c 3f ec d5 3c
       0.0001512654 0.039061263 0.028993854 0.026113627
000340 06 57 04 3d 9b e4 b4 3c fb 1d 6b 3c f6 95 2e bc
       0.032309555 0.022081664 0.01435041 -0.010655871
000350 67 67 5f bc 3d 20 4c 3c 50 ba 48 3d 02 50 cc 3c
       -0.013635493 0.012458858 0.049005806 0.024940494
000360 59 9a 03 3c 60 a2 79 3d eb fb 48 3a 4f 23 12 3d
       0.008032405 0.06094587 0.0007666933 0.035678204
000370 37 17 8b 3d 0a 1d b1 3b 5a 25 46 bd 1d e1 32 bb
       0.06791537 0.005405073 -0.048375465 -0.0027294823
000380 7d 25 1f 3d 67 d8 01 3d 41 7a 39 bd 48 bd 20 bd
       0.03885411 0.031700518 -0.045282606 -0.039243013
000390 d1 a3 cf bc da 39 0d bd 28 b7 e6 bc 7e 58 62 3d
       -0.025346668 -0.034479 -0.028163508 0.055260174
0003a0 5e a1 f3 3c be b0 8d 3d 11 5e 79 3a ed c0 3d 3d
       0.029740032 0.069184765 0.0009512613 0.046326566
0003b0 01 41 85 bc e9 10 3e 3c 4e a4 3f 3c 60 70 9e bb
       -0.016266348 0.011600711 0.011696888 -0.0048351735
0003c0 03 27 b7 3c 43 2e 0a 3d cb bc 74 3d 98 a4 73 3d
       0.02235747 0.033735525 0.05975036 0.05948314
0003d0 00 72 3d bd cd 2a 38 3d 83 65 71 3d ac 40 2a 3d
       -0.046251297 0.044962693 0.0589347 0.041565582
0003e0 08 1b 5f 3d d8 8b 93 3d 4a ee ef bb 64 06 d2 3c
       0.05446914 0.072044075 -0.0073221074 0.025637813
0003f0 21 ed 17 bd a1 8f d6 3c 83 01 4c 3d d6 f1 08 bd
       -0.037091378 0.026191534 0.04980613 -0.033433758

fc2.bias f4 [128]
000000 68 8c 78 3c 7b 32 48 3c 78 52 88 bd 05 c9 97 bc
       0.015170194 0.012219067 -0.06656355 -0.01852847
000010 01 6c 40 3d 56 e9 39 3c 65 17 a9 3d a8 1e 89 3d
       0.046978 0.0113471355 0.08256415 0.066953
000020 c2 b9 c6 bb 67 00 ab 3d 82 65 40 bd a8 7a 10 3d
       -0.0060646245 0.08349686 -0.046971805 0.035273224
000030 d2 be 78 bd 2b 74 be bc 73 42 25 3c 55 e7 b1 bc
       -0.060728855 -0.023248753 0.0100866435 -0.021716753
000040 79 13 16 bd f8 94 19 3c fe 09 3f bd 5e 7e dd bc
       -0.036639664 0.009373896 -0.04664039 -0.027037796
000050 2f a6 5e bd 94 fb 0d bd b8 c5 81 bc dc b9 2a bd
       -0.054357704 -0.03466375 -0.01584135 -0.041681156
000060 74 aa 51 bd f6 52 3a 3d a3 62 98 3c 28 d9 fe 3c
       -0.051187947 0.045489274 0.018601721 0.031109408
000070 2f b1 0e 3d 8e f0 39 bc 34 f8 4b 3d 58 ad 94 bc
       0.034836944 -0.011348857 0.04979725 -0.018149063
000080 4a f1 36 3d 54 88 7c 3c 54 73 88 bc b1 1d 3a 3d
       0.044663705 0.0154133625 -0.016656555 0.045438472
000090 01 41 10 bd ae a5 27 3b 3b 16 62 3b f8 e7 a7 3a
       -0.035218243 0.002558093 0.0034498114 0.0012810221
0000a0 15 df 17 3d b9 6e 82 bc cd f7 a6 bc da 83 15 3d
       0.037077982 -0.015921937 -0.020381832 0.036502697
0000b0 62 26 2a bd 72 20 98 3c 66 0e 3f bd 11 2f 74 3c
       -0.04154051 0.018570159 -0.04664459 0.0149038
0000c0 ad 61 7b bd fe 04 31 bd 75 d0 01 3d cf 8d c0 3c
       -0.061372448 -0.04321765 0.03169294 0.02350512
0000d0 ac b5 57 3d f0 49 7f 3d e5 95 35 bd e0 50 5e bb
       0.05266349 0.06232637 -0.044332404 -0.0033922717
0000e0 1b 3a 8c 3b e8 01 ac bb db a2 1d bd 19 bb d1 bc
       0.0042793876 -0.0052492507 -0.03848539 -0.02560191
0000f0 ec ac 02 bd 66 e8 32 3c 18 12 4b 3d a9 4f 4c bd
       -0.031903192 0.010919666 0.049577802 -0.049880657
000100 a2 9c 11 3c 2c 08 e1 3c 8e db 0b bd cd 0d a4 bc
       0.008887442 0.027469717 -0.03414493 -0.020026112
000110 18 83 2c 3d 1e 22 85 bc 89 52 ee bb 0f c5 1c 3d
       0.04211721 -0.01625162 -0.0072730226 0.038273867
000120 b2 a6 1e 3d c6 4d 4b bc c0 f6 82 bd c9 62 ed 3c
       0.03873319 -0.012408679 -0.0639472 0.028977768
000130 20 4c 44 3d b0 06 ae bc 7b 70 48 3d 8c af 3c 3d
       0.04792416 -0.021243423 0.048935395 0.046065852
000140 b2 3d 4b 3d 54 d8 40 3c ce 53 48 3d e0 91 ec bc
       0.049619384 0.011770327 0.048908047 -0.028878152
000150 58 67 60 3d 88 52 c2 bc 2e 85 1c 3d 1b 86 4c 3d
       0.054786056 -0.023720995 0.038212948 0.04993258
000160 cb 7e 40 3d 0a c6 da 3c 2e c1 51 bd 19 50 26 bd
       0.04699592 0.02670576 -0.05120962 -0.04060373
000170 93 c6 4c bd 00 6c 44 bd 40 33 82 bc 16 b3 36 3c
       -0.049994063 -0.04795456 -0.015893579 0.011151096
000180 75 9b a8 ba 4e b8 ab 3b d6 23 17 bd 5d 3a 66 3c
       -0.0012863713 0.0052404767 -0.03689941 0.014052001
000190 bf 39 4d bd e1 3a d2 3c c6 a9 97 bc 18 d9 32 bc
       -0.0501039 0.025662841 -0.018513571 -0.010916017
0001a0 d6 64 16 bc 3d 99 8e bc 0a 11 b0 bc c4 30 02 bd
       -0.009179315 -0.017407054 -0.0214925 -0.031784788
0001b0 ca 9d 2c 3d a0 86 00 3c e4 7b 06 bd 85 25 b1 bc
       0.042142667 0.007844597 -0.032832995 -0.021624336
0001c0 aa 04 71 bd 56 08 64 bc ae d0 20 3d a6 de e5 3c
       -0.05884234 -0.013918003 0.039261512 0.028060269
0001d0 a3 1b 55 3d 68 4d c8 bc e0 9b 16 3d 4d 2f d9 3c
       0.05202831 -0.024450973 0.036769748 0.026511813
0001e0 5b 1e 70 3d fb a1 df 3b 98 0c 48 bd a1 1a 00 bd
       0.0586227 0.0068247295 -0.048840135 -0.031275395
0001f0 f7 01 62 3d 73 f8 10 ba 9d 2d 82 ba fa 32 0c bc
       0.055177655 -0.0005530186 -0.0009931807 -0.008557076

fc3.weight f4 [64, 128]
000000 bc 9f 99 3d c4 f0 a9 3d 06 e3 d3 bb dd 0a f4 bc
       0.0750117 0.082978755 -0.0064662723 -0.029790336
000010 54 be eb bb 08 27 61 3d 5b 13 8d bd 05 6e d4 bd
       -0.0071943197 0.054968864 -0.068884574 -0.10372547
000020 c4 25 82 3d a7 40 92 bd d4 da 51 3d 8e f8 33 bd
       0.063548595 -0.07141238 0.05123408 -0.043938212
000030 bc 33 0e 3d 8f f5 8d 3d c8 fd ad bd be a0 49 3d
       0.034717306 0.06931602 -0.084956706 0.04922556
000040 2c f5 b5 bd 8f 63 a6 3d 22 61 86 bd 16 71 a7 bd
       -0.088846534 0.08124458 -0.06561495 -0.08175866
000050 21 d0 ae bd b3 7e 8a bd e1 9c 74 3c b2 80 3c 3d
       -0.08535791 -0.06762447 0.014929981 0.04602117
000060 91 78 ec 3c 64 8c b9 bc fd 0b 16 bd 9e 96 22 bd
       0.028866084 -0.022649951 -0.036632527 -0.03969442
000070 0b 79 8b 3d ec 6a 92 3d 3f 10 1e bd 89 b2 aa 3b
       0.068101965 0.071493 -0.038589712 0.0052092713
000080 c0 64 5d 3d 01 5d a3 3c da 1f a6 3d a8 8a a1 3d
       0.05405116 0.019941809 0.08111544 0.07887775
000090 e2 34 3e 3c f4 45 9d 3c 0d 41 ff bc a2 f4 b9 3d
       0.011609288 0.019198395 -0.031158948 0.09079863
0000a0 4f 0c 52 3d a4 e6 f4 bc c5 10 b1 3d 87 37 8f bd
       0.05128127 -0.029895134 0.08645777 -0.06993013
0000b0 89 1f 7e bd a4 a4 14 bc a4 fb 11 3d 72 0f 4a 3d
       -0.062041793 -0.0090724565 0.035640374 0.049331136
0000c0 e5 1c 1c bd b7 4f 2c 3d 3e 00 e6 ba 8c 83 49 3d
       -0.038113493 0.04206821 -0.001754768 0.04919772
0000d0 4d 65 a2 3d 32 72 7f bd 85 2f 8b bd 11 8f 1c bd
       0.07929478 -0.062364765 -0.06796173 -0.038222376
0000e0 6a c0 85 3d 4c 52 6e bc 1c d4 69 3d 3f 52 fc 3c
       0.06530841 -0.014545988 0.05708705 0.030800937
0000f0 dc e2 d5 bc 02 dc f4 bc a3 5b aa 3d 26 56 8d 3a
       -0.026109152 -0.029890064 0.083182596 0.001078312
000100 15 b2 0c 3d 8e fc 39 bd 0b 7f 08 bd a6 22 bd bd
       0.03434952 -0.04540687 -0.033324283 -0.09235124
000110 a8 76 f7 bc bc 1c 55 3d 73 30 7b bd 92 93 a8 3d
       -0.030207947 0.052029356 -0.0613255 0.08231272
000120 94 a7 22 3c a3 01 a0 3c 74 05 8a bd e2 13 42 3c
       0.009927649 0.01953203 -0.06739321 0.011845561
000130 c9 86 0a 3d 60 20 27 bd 7b a9 a5 bd 93 4c c7 bd
       0.033819947 -0.04080236 -0.080889665 -0.09731402
000140 d6 28 69 bd dc a3 01 bc 40 8d 40 bd 0e 2e 1b 3d
       -0.05692371 -0.007912602 -0.047009706 0.037885718
000150 8b 17 9d 3c 12 d2 2e bd 54 dd da bc 67 7b 21 bb
       0.019176265 -0.042680807 -0.026716866 -0.0024640204
000160 c3 64 5e 3d 15 e3 fe bc bd 9f 6c bd f0 66 a4 3d
       0.054295313 -0.03111414 -0.057769526 0.08027446
000170 5c 4c 90 3c 8d 43 95 3d 8e 60 48 3d 07 59 d2 3c
       0.017614536 0.07288275 0.048920207 0.025677217
000180 45 b4 b6 bd b3 55 75 3d 26 e6 0f bd 4b dc a8 bd
       -0.089211024 0.059896182 -0.035131596 -0.082451425
000190 eb ce 16 bd 60 2a 4a bd 17 60 b4 3d d8 8f 85 3d
       -0.036818426 -0.04935682 0.0880739 0.06521577
0001a0 07 9f 86 bd b8 36 ea bb ab 37 02 3d 7b 29 1d 3d
       -0.06573301 -0.0071476363 0.03179137 0.038369637
0001b0 2a 23 0b bd e2 bd 95 3d ff 7c 84 3c 5a d9 c3 bd
       -0.033969082 0.07311608 0.016172884 -0.09562941
0001c0 54 26 b9 3d a8 e5 88 bc 29 71 85 bc d9 05 b4 bd
       0.09040514 -0.016711071 -0.01628931 -0.08790178
0001d0 b6 cd ed bb f2 7e 7a 3d 22 88 36 bd 97 50 ad 3d
       -0.0072571887 0.06115622 -0.04456342 0.08462637
0001e0 73 ba 05 3d bf f5 b1 3c 91 27 5a bd 4e 22 51 bd
       0.032648515 0.021723626 -0.05326039 -0.051058106
0001f0 9d 2b 51 bb 32 62 c6 3c e8 93 81 bd a3 a6 20 3c
       -0.0031916865 0.024216745 -0.06327039 0.009805354
000200 8c d0 98 bd c4 f7 1c 3d c6 41 2c bd f5 c3 9f 3c
       -0.07461652 0.038322225 -0.042054914 0.01950262
000210 ea 0d 83 3d bc aa 8b bd 3c 8c 2b 3c 72 68 30 3d
       0.06399138 -0.068196744 0.010470446 0.043068357
000220 bd b2 4a bd dd 55 93 bd 71 e6 34 3c 3c 67 9f 3d
       -0.049486864 -0.071941115 0.01104127 0.07783362
000230 cc c2 1d bd 3b d2 ac bd 3d c6 57 bd 84 37 ac bd
       -0.03851585 -0.08438536 -0.05267929 -0.08409026
000240 e2 88 4e bd da ff 89 bb b0 9d 97 bd 6d d7 31 bd
       -0.05042351 -0.004211408 -0.074031234 -0.043418337
000250 b0 cb ab bd 85 9e f1 ba 10 70 46 3d 82 25 80 bd
       -0.0838846 -0.0018434083 0.048446715 -0.06257154
000260 1f 2e 80 bc 1a 81 6a bc c5 53 88 3c 01 f9 8a bd
       -0.015646992 -0.014313007 0.016641507 -0.06785775
000270 40 a8 20 bd 52 e9 93 bc 0e 35 2c bd 8e 06 f9 bb
       -0.039222956 -0.018055592 -0.042042784 -0.0075996583
000280 30 a7 31 3d 0f f6 88 bc 3b e3 8b 3d d8 27 a4 3d
       0.043372333 -0.016718892 0.0683045 0.08015412
000290 bb 02 cb 3c be 2a 14 3d 41 88 4d 3b 86 71 8c bd
       0.024781575 0.036173575 0.0031361731 -0.068575904
0002a0 2e df 82 bd 9e 2d 80 bd 7e ad 2d bc ad 52 21 3d
       -0.063902244 -0.06258701 -0.010600446 0.039385486
0002b0 31 80 7d bd c5 a7 b4 bc 2d bf b9 bc 23 d2 a3 3d
       -0.06188983 -0.022052655 -0.022674168 0.07999065
0002c0 91 22 01 bd cf bc 8f bd 2f a4 63 bc 29 27 99 3d
       -0.031527106 -0.07018434 -0.013894125 0.07478172
0002d0 99 15 4c bd 0a 70 cd 3b f2 aa 3e 3d de e4 79 3d
       -0.049825285 0.0062694596 0.046549745 0.06100928
0002e0 f7 3c c5 3b 7a 48 15 bd ed 63 d2 bc 99 bb 1d 3c
       0.0060192305 -0.036446072 -0.025682414 0.009627246
0002f0 ed 3c 33 3d b7 dd a6 bd 86 95 d8 3b db f1 a0 3d
       0.043759275 -0.081477575 0.0066096215 0.0785863
000300 17 91 57 bc 4f 2f 46 3d 78 2e 84 bd 79 44 8f 3d
       -0.013157151 0.04838496 -0.06454176 0.06995482
000310 49 ab 3b 3c 80 90 7a 3d 7e 87 5e 3d 16 e6 8c bd
       0.011454412 0.061172962 0.054328434 -0.06879823
000320 9a af 71 3d 43 a4 aa bb 88 28 ad bc 72 1f b9 bd
       0.059005357 -0.00520757 -0.02113749 -0.09039201
000330 af ca 24 bc 58 2b d6 bc 42 21 9f 3c 0f 4a ae bc
       -0.010058089 -0.026143715 0.019425038 -0.021275548
000340 a7 8f 82 3d 5c d9 d2 3b bf fc bc bc e3 5d 1e 3c
       0.06375056 0.0064346027 -0.023069737 0.009665939
000350 f6 fc 71 bd 92 01 c4 3c 06 69 cf bc 06 75 40 3d
       -0.059079133 0.02392653 -0.025318634 0.046986602
000360 03 b2 c1 bd 15 e2 1d 3d e6 60 a7 3d 65 70 52 3d
       -0.09457781 0.038545687 0.08172779 0.05137672
000370 d5 00 cb 3b fe 48 61 bd dd c5 45 3d b7 57 bc bd
       0.0061951675 -0.05500125 0.0482844 -0.09196418
000380 d7 0f bf bd 73 49 67 bc 33 59 24 3d 16 a5 9d bd
       -0.09329193 -0.014116633 0.04012413 -0.07697503
000390 80 f8 08 3d 9a 05 79 3d e9 a5 3a 3a 22 c1 34 bd
       0.033440113 0.060796358 0.00071200595 -0.0441295
0003a0 18 45 7d 3d 87 0c 3d bc 42 85 7a bd 86 d1 45 bd
       0.06183347 -0.011538631 -0.06116224 -0.04829552
0003b0 9e 0c 38 bd e3 d6 7b 3d 4c 38 29 3d 26 41 1d bc
       -0.044933908 0.06148423 0.041313455 -0.009598052
0003c0 ba c8 c8 bc 60 16 4e 3d b3 be c2 3c 68 71 04 bd
       -0.024509776 0.050314307 0.023772573 -0.032334715
0003d0 3e eb 8b bd 4b 37 6e 3d 0e 2e 58 3d 4d 54 0a 3d
       -0.06831978 0.0581582 0.052778296 0.0337718
0003e0 82 0c 82 bd 44 49 82 3d 05 60 9b 3d 18 46 1b 3d
       -0.06350042 0.063616306 0.07586674 0.037908643
0003f0 e7 37 11 bd dd d9 4c bc de 74 b0 3b b7 75 a4 bd
       -0.035453703 -0.0125031145 0.0053850254 -0.08030265

fc3.bias f4 [64]
000000 a9 2e 14 3d 18 0e a6 3d ae 7a 92 3c 7c bd 39 3d
       0.03617731 0.08108157 0.017880764 0.045346722
000010 eb d3 91 3c ac 1c 0b bc a4 ab fc b9 18 b1 b1 3d
       0.017801246 -0.008490723 -0.00048193068 0.08676356
000020 dd fa 4e bc 71 97 57 bd 72 a4 a2 bd 01 3b 5a bd
       -0.012633053 -0.05263466 -0.07941522 -0.053278927
000030 ec c6 8e 3c c4 cb ea 3c 4e b5 01 3d 53 cc 17 bd
       0.017428838 0.028661616 0.031667046 -0.037060093
000040 ad 24 a7 bd 65 52 a5 bd d1 e7 4d bd 18 95 a9 3d
       -0.08161292 -0.08072356 -0.050269905 0.082803905
000050 14 d2 86 3d 51 57 8b 3d 58 10 3c 3c 6e 91 aa bd
       0.06583038 0.06803764 0.011478506 -0.0832852
000060 91 84 45 bd 99 96 8f bd 54 2c a8 3d af e9 d0 ba
       -0.04822213 -0.07011146 0.0821158 -0.0015938784
000070 42 3e d2 3c cd b1 0a 3d f8 0d 80 bd a8 fa 84 3d
       0.025664452 0.03386097 -0.06252664 0.064931214
000080 de be 90 bd 08 3b 9c bd f4 7a 28 3d f6 c9 aa 3b
       -0.07067655 -0.07628447 0.041132882 0.005212064
000090 64 9e 82 bd 13 d4 1f bd 63 73 1e 3c 9a d4 1e bd
       -0.06377867 -0.03902061 0.009671065 -0.03877697
0000a0 39 11 87 bd 18 b4 5a 3c 8a dc c6 3d 9e 7f ca 3b
       -0.06595082 0.013348602 0.09710033 0.006179764
0000b0 8d d0 2b 3d 16 93 99 3d 5e 39 cc bc a9 57 4d bd
       0.041946936 0.074987575 -0.024929699 -0.050132427
0000c0 9b ea 4d 3c 36 89 7d bd 34 c8 08 bd a4 09 81 3d
       0.012568141 -0.061898433 -0.033394054 0.06300667
0000d0 e9 07 67 bd cb 43 53 3d 9f 5e 00 3c 6d 8e 60 bd
       -0.056404028 0.051578324 0.007835059 -0.054823328
0000e0 9f 45 86 3c 6d a6 8b bd 10 78 62 3d 5e 64 47 3d
       0.01639062 -0.068188526 0.05529028 0.048679702
0000f0 88 6f 88 bd 8f e7 a7 3d fc 92 55 bc 35 d5 9c 3c
       -0.06661898 0.08198463 -0.013035532 0.019144634

fc4.weight f4 [4, 64]
000000 79 54 0c 3c d7 61 23 bb 95 1c 21 3d 09 37 e5 bd
       0.008565062 -0.0024930143 0.0393339 -0.11192138
000010 69 86 01 3d a0 1c e1 bd 42 f3 9f bc a6 f4 4d 3b
       0.031622324 -0.10991788 -0.019525174 0.003142634
000020 75 b0 de 3d f8 39 80 3c fc 0f 43 bd 37 93 a4 bd
       0.108735 0.015652642 -0.047622666 -0.080358915
000030 e7 d1 37 bd ac 3d 5c 3d ed 96 26 bd 10 e0 b1 bc
       -0.044877913 0.053769752 -0.040671278 -0.021713287
000040 16 1f d3 3d e2 cc a7 3d 0a d8 ae 3d 7b 0e e2 bd
       0.103086635 0.08193375 0.085373 -0.11037918
000050 0c e5 f0 3d 95 34 23 3d b7 9a 03 bd f4 6a bc 3d
       0.11762437 0.039845068 -0.03212997 0.09200087
000060 c4 de e9 3b 92 e4 e7 bd 1b 45 db 3d 3c 63 ea 3d
       0.0071371514 -0.11322893 0.1070654 0.11444709
000070 c9 be ab 3d 68 80 88 3d da 62 91 3d 47 73 2c bd
       0.08385999 0.066651165 0.070989326 -0.042102125
000080 00 06 bc 3d 59 46 05 be 70 85 4a 3d fc 95 ef 3d
       0.09180832 -0.13015117 0.049443662 0.11698529
000090 ee 58 c5 bd c6 07 5e 3d c4 ff bc 3d d8 7e 20 3c
       -0.096361026 0.054206632 0.09228471 0.009795867
0000a0 5c fd a1 bc f4 80 45 bd 14 67 dc bd 33 a5 65 3d
       -0.019774131 -0.048218682 -0.10761848 0.05606575
0000b0 f3 e9 83 3d 85 79 5c 3d e7 a7 65 3d 41 eb 81 bd
       0.06441107 0.053826828 0.056068327 -0.06343699
0000c0 27 41 aa bd ef e2 3d bd 1f 13 0f b9 b0 8d f7 3c
       -0.08313208 -0.046359 -0.00013644666 0.030218929
0000d0 fd 21 fd bc 1d 93 2a 3d 51 12 a5 bc 15 40 a9 3d
       -0.030899996 0.041644204 -0.020150336 0.08264176
0000e0 95 83 0a 3d 40 44 74 bd 32 64 03 3e 5f f1 b8 3d
       0.033816893 -0.0596354 0.1283119 0.09030413
0000f0 3e 3f c9 3d 8f 53 0c be 02 23 7e bd 55 6c ac b9
       0.098265156 -0.1370375 -0.062045105 -0.0003288711
000100 90 6a 9a 3d 3f aa 1f bd 45 6d 8c bd 25 56 0c 3e
       0.075398564 -0.03898072 -0.06856779 0.13704737
000110 bf 8f 8d bd 91 56 8e 3d 6b b7 91 bd 77 6f 86 3c
       -0.06912183 0.06950105 -0.07115062 0.016410572
000120 0d 86 6b bd 41 fa de bd 85 61 42 bd a2 16 82 3b
       -0.057500888 -0.10887576 -0.047456283 0.003969983
000130 ea b2 8c 3b 38 bd 98 3d 3b c1 ea 3d 40 cb 9a 3d
       0.004293789 0.074579656 0.11462637 0.07558298
000140 ba 9b 47 3d 8d 7c a4 3d 44 4c 69 bd ea 01 a0 3d
       0.048732497 0.08031569 -0.0569575 0.07812865
000150 4f 89 c7 bc 43 c4 03 bd 29 68 e0 3d 5d 13 fe bd
       -0.024357466 -0.03216959 0.10957367 -0.12406037
000160 7f 38 bc 3d fe 9a dd 3d d1 e6 b8 bd e6 2b 39 bd
       0.09190463 0.10820578 -0.090284 -0.04520788
000170 6c a8 de 3d 29 d7 b0 3d 4e 2a 0e bd 0c 9c c5 3d
       0.10871968 0.086347885 -0.034708314 0.09648904
000180 1b 84 d6 3d e1 bd dd bc df 22 b3 3a fa cb ab bb
       0.10474416 -0.02706808 0.0013667009 -0.0052428218
000190 fc ea a9 bc c4 3d e0 bb 4f ab 0a 3d c3 06 c8 bd
       -0.020741932 -0.0068433005 0.03385478 -0.09766915
0001a0 9f 9c 2a 3c 60 76 2f 3d 12 e5 c3 3d 5b e4 bd 3d
       0.010413318 0.0428375 0.09565176 0.09272071
0001b0 95 72 06 3d 7f c2 e4 bd 33 6e f5 3d b7 98 af 3d
       0.032824118 -0.1116991 0.119839095 0.0857405
0001c0 85 c0 84 3d 9f 63 60 bd 5a 13 dc 3d 36 2b c8 bd
       0.06482033 -0.054782506 0.107458785 -0.09773867
0001d0 48 7f 6f bc bc b3 14 bd f7 db 8d 3d 11 31 80 bd
       -0.014617749 -0.03630422 0.069267206 -0.06259359
0001e0 f9 c8 c6 bd fe c4 98 bd ca c4 e5 bd d6 0a 01 3e
       -0.09706301 -0.07459448 -0.11219175 0.1260179
0001f0 dc d8 a7 3d 7b d2 9c 3d a8 5f fa bd 34 48 c1 bc
       0.081956595 0.076573335 -0.12225276 -0.023594
000200 ce a8 95 bd 59 d7 09 3d 48 7b 60 bd cc d6 75 3d
       -0.073075876 0.033652637 -0.05480507 0.0600193
000210 3a ff f7 bc ef 21 b5 bd ee c2 d2 bc 18 17 1b bd
       -0.030273069 -0.08844363 -0.025727715 -0.03786382
000220 e6 34 9e 3d d7 5c 63 bd 16 2f 63 3d c6 02 df bc
       0.07724933 -0.05550846 0.055464827 -0.027223002
000230 48 07 00 3d d4 a9 07 be 82 d6 82 b9 68 87 d3 bd
       0.031256944 -0.13248378 -0.00024955353 -0.10328561
000240 c6 f6 7b bc 14 fd 96 3d 9e 0e 5b 3b 51 83 c0 bd
       -0.01537866 0.073724896 0.003342546 -0.094000466
000250 1e d6 c7 3d 0b 09 01 3e a7 4e f1 bc ac a0 f7 3c
       0.097576365 0.12601106 -0.02945645 0.030227982
000260 c4 e5 3f 3d 00 eb 94 bd 57 99 9e bc 5c 6f d1 bd
       0.04684998 -0.07271385 -0.019360228 -0.10226318
000270 7a c8 ce bd 1e 1f f8 3d 07 8b b4 3d db 0f 27 bc
       -0.100968316 0.1211531 0.0881558 -0.010196651
000280 67 8a f5 3c cd e2 c1 bd 1e f2 97 3a f5 31 d2 bd
       0.029973222 -0.09467087 0.0011592542 -0.10263435
000290 e9 97 74 3d 0b dc 91 bd f4 58 d5 3d 69 5a 8a bc
       0.059715185 -0.07122048 0.10417357 -0.016888814
0002a0 6c fa f3 bd b8 1f 3d 3d 86 28 7b 3d 3f b3 c7 3d
       -0.119129986 0.046172827 0.061317943 0.09750985
0002b0 42 4a 9b 3d 96 03 da bd 04 a4 b2 3d 71 e2 58 3d
       0.07582523 -0.10645215 0.0872269 0.052950326
0002c0 88 98 b9 3d d4 fb d0 bd de 08 1d 3d 7f e2 d4 bd
       0.09062296 -0.102042824 0.038338535 -0.10394763
0002d0 c7 e2 0a bc ca e1 aa bd 87 3c c1 3d 6c 75 82 3d
       -0.0084769195 -0.08343847 0.09435373 0.06370053
0002e0 44 8a d0 3d da e6 c5 bd 71 c6 c5 bb 25 13 04 be
       0.10182622 -0.09663172 -0.006035619 -0.12897928
0002f0 1c 92 6c bd af 24 c8 3d 01 7b 2e bc ef 8e 89 3d
       -0.05775653 0.09772622 -0.010649444 0.067167155
000300 a8 3b b2 bc a5 a2 e2 bc 1d 4a d0 3d 81 ef 03 3d
       -0.021756962 -0.027665446 0.10170386 0.03221083
000310 e7 64 39 3c 79 dc a2 3d 70 49 d8 bd 86 5e a9 bd
       0.011315561 0.07952208 -0.10560882 -0.08269982
000320 bc 7b 49 bd 8a bd 87 bd f2 ee c0 3d 4c ea c4 3d
       -0.049190268 -0.066279486 0.09420575 0.09615001
000330 2f 6c ad 3d 93 e7 0c 3d b1 f8 11 bc dc 5f 67 bd
       0.084679 0.034400534 -0.00890939 -0.056487903
000340 35 0f fb 3d f9 b0 ca bc 46 e3 81 bd f0 9b 15 3c
       0.1225876 -0.02474259 -0.06342177 0.009131417
000350 14 9f 0f 3d a8 5a 8f 3d ac ef 21 bd 90 53 43 3c
       0.035063818 0.06999713 -0.03953521 0.011921778
000360 c8 6e a4 3d 7c e6 97 bd d5 0b f4 bd 7d ea 7c 3d
       0.08028942 -0.07417008 -0.11916319 0.061747063
000370 6d d3 ca 3d 91 1c 59 bc 35 5a bf bd e1 0d 00 3e
       0.099036075 -0.01325144 -0.093433775 0.12505294
000380 50 ec c9 bd ff a2 05 bd 3b b9 c6 3d a5 81 23 bd
       -0.09859526 -0.03262615 0.09703299 -0.03991856
000390 04 e8 0d bc 8f d6 87 3d 3c c7 ed bd 89 8d 35 3c
       -0.008661274 0.06632721 -0.116102666 0.011081108
0003a0 6d de ce bd 48 94 3e bd 5e f3 d3 3d bf e0 e5 bd
       -0.10101018 -0.04652813 0.10349153 -0.112245075
0003b0 55 5c 64 3c 47 d4 05 bd 95 a4 6d bd c7 05 99 bd
       0.013938029 -0.032673147 -0.058018286 -0.07471805
0003c0 78 c8 48 3d 08 68 d3 bc 0b ce ba bd 2e fe b9 3b
       0.049019307 -0.025806442 -0.09121331 0.0056760525
0003d0 09 57 7a bd 72 1e bc bd 12 ba 04 3e 85 2e c7 bd
       -0.06111816 -0.091854945 0.12961605 -0.0972567
0003e0 34 ed 39 3d b3 53 e2 3d 85 2f d7 3b b8 0f 06 bd
       0.04539223 0.110511206 0.006566944 -0.032729834
0003f0 d3 d7 3b bd e2 ff 60 3d 13 18 59 3d 71 ef da 3d
       -0.045860123 0.05493153 0.053001475 0.10690201

fc4.bias f4 [4]
000000 84 ac 72 bd a3 51 93 3d 88 a7 79 bd e2 74 45 3c
       -0.059246555 0.07193305 -0.060950786 0.012051793
